CNN1/model.pth (torch, 89851 bytes, 8 tensors)

conv1.weight f4 [10, 1, 5, 5]
000000 d1 4d cf bd 61 35 90 3e 63 22 1d 3e 5a ab 80 3e
       -0.10122264 0.28165725 0.15345149 0.2513073
000010 ff 44 5c 3e 5d 4e ba 3d 7c f1 53 3e 3b 8b 2f 3e
       0.21510695 0.09096978 0.20697588 0.17142956
000020 6b 63 4a 3e 77 ce 61 3d 93 c2 83 bd 1a 11 57 bd
       0.19764487 0.05512854 -0.064335965 -0.052506544
000030 67 7e cf bb e3 39 83 bd 6b 7f 00 3e b5 4f 79 bd
       -0.006332207 -0.064075254 0.12548606 -0.06086703
000040 16 8d 5a be 27 75 96 be 30 f3 61 be 81 63 58 be
       -0.21342883 -0.29386255 -0.22065425 -0.21131708
000050 23 66 19 be 73 39 09 be 8f f6 bd bd 6c f2 b1 bd
       -0.14980368 -0.13400821 -0.09275543 -0.086888164
000060 84 ed 86 be 2a 9a 82 3e 91 1d a7 3e 9c 93 c2 3e
       -0.26353085 0.25508243 0.32639745 0.38003242
000070 36 3a 52 3e 3b 11 1e be 78 68 27 be 0a 3b 76 3c
       0.20530018 -0.1543626 -0.16348445 0.015028724
000080 7c ff b8 3e 62 48 7a 3e eb fb a0 3e 8b fb 8a be
       0.3613242 0.24441674 0.31442198 -0.27145037
000090 76 73 0e 3d c6 50 8d bd cc 54 8c 3e 0e 3c 63 3e
       0.03477808 -0.06900172 0.27408445 0.22190878
0000a0 5a e9 be be f8 ff df bd 2a 2d 5d be f7 d1 90 bd
       -0.37287408 -0.10937494 -0.2159926 -0.070712976
0000b0 63 41 bb 3c 22 53 7d be b7 30 b7 be 1d 77 82 be
       0.022858327 -0.24738744 -0.35779354 -0.254815
0000c0 19 b5 d4 bd cc 40 8c bd 4f 08 b1 3e 28 b4 c9 3e
       -0.10386104 -0.068482965 0.3457665 0.3939526
0000d0 b4 ff 41 3e 3d 8e 8d bd 5b 35 14 3e 3c 90 57 3d
       0.18945199 -0.069118954 0.14473478 0.052627787
0000e0 89 2a 0c bd ca 9a 8b 3e 2a d2 5d 3e d0 9f 61 3e
       -0.034220252 0.27266532 0.21662202 0.2203362
0000f0 27 0a 36 be 48 34 0a bc 41 5b d9 3d 6d 7b f0 3d
       -0.1777731 -0.008435316 0.106131084 0.117422916
000100 ee 48 24 be 72 f8 15 be c3 1f 2d 3e da 73 51 3d
       -0.16043445 -0.14645556 0.16906647 0.051135875
000110 4e 30 03 3e ff b0 92 bd 4c 17 02 3d 79 28 b2 3d
       0.12811396 -0.071626656 0.0317605 0.08699126
000120 47 2a ed 3d ca 29 6c 3d 96 ac 9b be 9d 32 14 3e
       0.115803294 0.05765704 -0.3040511 0.14472432
000130 28 39 0d be 60 4d 3e be 77 fb 7d bd be 62 a2 bd
       -0.13791335 -0.18584204 -0.062007394 -0.0792899
000140 77 dd 46 3e a9 c9 98 bd 64 ae 5b be b0 40 b2 3d
       0.1942042 -0.074603386 -0.21453243 0.087037444
000150 44 70 68 bd d9 64 53 3e b2 ce 28 3e 48 da 06 be
       -0.05674769 0.20643939 0.16485098 -0.13169205
000160 50 29 84 3d 5a 60 c0 3d 04 68 24 bd 2c 56 08 3d
       0.06453192 0.093933776 -0.04013826 0.033285305
000170 a8 b7 24 3e ca f5 0a 3e 75 87 2c 3b a7 1d 94 3d
       0.16085684 0.13570324 0.0026325856 0.07232218
000180 2e 36 aa 3e 97 a1 84 3d de 33 59 3e 82 0b 44 3e
       0.3324446 0.06476133 0.21211192 0.19145015
000190 eb 4c 2c be 3b 7f 3a be 86 c4 4c 3e 19 b3 d0 3d
       -0.16826217 -0.18212597 0.19996843 0.1019041
0001a0 dd 42 58 3e 21 27 bd 3d 8d 30 40 3e ef cc b0 3e
       0.21119256 0.09235979 0.1876852 0.34531352
0001b0 b9 f7 bd 3e 0d 94 77 bd c9 65 c8 3d 6b 0d 53 3e
       0.3710306 -0.060443927 0.09785039 0.20610587
0001c0 60 18 48 3e 02 98 49 3e 77 c2 ba bd 43 df 1c be
       0.19540548 0.19686893 -0.091191225 -0.15319543
0001d0 6c ce 42 be f3 e0 4a bd 4f 3d 81 3e 35 32 e2 bc
       -0.19024056 -0.049530935 0.25242087 -0.027611831
0001e0 7b a2 18 bd 50 26 84 be 5c 75 89 be 8d 0f 7d bc
       -0.03726433 -0.2581048 -0.2684735 -0.015445602
0001f0 b7 f7 5e 3e 5f d6 90 3e c9 87 cb 3c 4c 6c 2d 3e
       0.21774183 0.28288552 0.02484502 0.16935843
000200 fa 2a 71 3e cb 1b e5 3d 47 a9 48 3e f4 a9 89 3e
       0.2355155 0.11186942 0.19595824 0.26887476
000210 b3 77 56 3e 05 05 84 3d 5b 65 36 be c3 97 4a be
       0.20944099 0.0644627 -0.17812102 -0.19784455
000220 58 d0 00 be 9f 3d d5 bc d4 72 d4 bd 7b 79 cf 3d
       -0.12579477 -0.02603036 -0.10373464 0.101305924
000230 b8 cd 5d 3c 3f d3 b9 bd 38 2e e3 3d 00 29 25 3e
       0.013537817 -0.09073495 0.110928 0.16128922
000240 50 b3 8f 3e f6 68 06 3e 6a f3 03 bd 0c 41 87 3e
       0.28066492 0.13125977 -0.03221456 0.26416814
000250 b2 84 85 3d 15 71 b5 3d af ba b2 be ad 01 9f be
       0.0651945 0.08859459 -0.34908053 -0.31055966
000260 ae 1f 51 be bd 27 95 3c ed 09 9e 3e aa 4e b1 be
       -0.20422241 0.018207425 0.30866948 -0.34630328
000270 55 2e 8f be 7b 39 9d 3d 51 6c 81 3e 3d 83 b0 3e
       -0.27965036 0.07676979 0.2527795 0.34475127
000280 11 c3 bb be d9 d9 5f bd 7b 38 43 3d 01 98 94 3e
       -0.3667226 -0.054651115 0.047661286 0.2902222
000290 aa 47 e0 3d ed c2 94 be 1e a4 6d bd 6c 7b 96 3e
       0.10951169 -0.29054967 -0.058017842 0.29391038
0002a0 07 43 ad 3e 6a 19 6c 3e be 1f 01 3e cb 15 7a 3e
       0.338402 0.2305657 0.12609765 0.24422376
0002b0 0b 7c 84 3e 22 83 0f 3e 2c 11 a7 bd 68 64 de 3d
       0.25875887 0.14014867 -0.08157572 0.10858995
0002c0 25 5a d7 bd e8 6b ab bd 8d af 92 be 0e 37 3e be
       -0.105152406 -0.08370191 -0.2864956 -0.18575689
0002d0 54 3c f0 bd a3 e7 a0 3d 1e 32 9f be bc af b0 be
       -0.11730257 0.07856681 -0.31092924 -0.34509075
0002e0 b3 dc 54 be 1a 8a 58 bd 6b 3e 20 3d 27 e7 ab bd
       -0.20787315 -0.05286608 0.039122026 -0.08393698
0002f0 50 2d fb bd dc 22 45 3c e6 97 72 3e e4 81 49 bd
       -0.12264502 0.012032237 0.23690757 -0.04919614
000300 83 71 97 3e ae 47 ba 3e 07 64 cb 3e 95 b2 ee bc
       0.2957879 0.36382812 0.39724752 -0.029137889
000310 58 49 7c 3e 90 7f 01 3e 7e 81 c7 3e b3 01 2c 3d
       0.24637353 0.12646317 0.38965982 0.041993808
000320 3c b7 7f 3e 85 72 0a 3e c5 3b e5 bc 68 d3 2a be
       0.24972242 0.13520248 -0.027982602 -0.16682208
000330 4d 15 2e be db 72 82 3e 2f 7c 50 3e 81 c6 d7 3c
       -0.17000313 0.25478253 0.20359872 0.026339771
000340 65 ca d1 be bc 92 b4 bd 9e 78 b0 3e 42 7f b1 3e
       -0.40974727 -0.0881705 0.34467024 0.34667403
000350 02 98 d4 3d 2d ca b0 be 23 73 87 be e3 aa ae 3e
       0.10380556 -0.34529248 -0.2645503 0.3411475
000360 e3 b0 f9 3c f2 6a 5f 3e ce ad 84 be 6e 23 89 be
       0.030479854 0.2181814 -0.25913852 -0.26784843
000370 2a 22 69 3e e0 0c 3c 3c 86 65 62 ba fe 7c 9d 3d
       0.22766939 0.011477679 -0.0008636344 0.07689856
000380 c1 3d 92 3d 3d 2b 21 3e 20 0c 62 3b 1b 4e e3 bc
       0.07140685 0.1573915 0.003449209 -0.027747205
000390 6b 84 b3 3e 93 59 cf 3d 5a e0 22 be 5b e0 4a 3d
       0.35061964 0.10124507 -0.15905896 0.04953037
0003a0 69 5c da bd 04 ae 23 3e be 74 5c 3e bf 95 88 be
       -0.10662157 0.1598435 0.21528909 -0.26676747
0003b0 cf ea 91 be 91 03 1b be b2 8f 82 bd 1e 09 32 bd
       -0.28499457 -0.15138079 -0.06375064 -0.043465726
0003c0 f7 04 20 be d5 34 20 be c2 e8 ab be 3e 6e 97 be
       -0.15626894 -0.15645154 -0.33576018 -0.29576296
0003d0 43 ab 8a be 48 1b 58 3e 9e 31 26 3e 0a 88 92 bd
       -0.27083787 0.21104157 0.16229865 -0.07154854
0003e0 e2 cf 98 bd 25 f6 77 bd
       -0.074615255 -0.060537476

conv1.bias f4 [10]
000000 6b 99 36 3c 58 97 07 bc fd 00 3f 3e 10 cb 03 3e
       0.011144976 -0.008275829 0.18652721 0.12870431
000010 9b 4c f8 3d 16 a7 ab 3c 1d aa 08 3e 36 c7 1f 3e
       0.12123986 0.020953696 0.13346143 0.15603337
000020 01 15 e3 bd 92 38 0e 3e
       -0.110879906 0.13888767

conv2.weight f4 [20, 10, 5, 5]
000000 f0 68 53 3c 41 39 53 bd c3 3b 17 3d dd 57 ab bc
       0.012903437 -0.051568273 0.036922228 -0.02091592
000010 d4 95 40 3d f6 43 ff bc a1 f8 88 bb b5 a3 10 bc
       0.047017887 -0.031160336 -0.0041800295 -0.008828093
000020 37 c7 7b bc 22 83 e2 3a e7 b0 b0 bc 38 a1 8a bd
       -0.015367321 0.0017281512 -0.021568729 -0.06769031
000030 9c b5 c1 bd 1f 78 50 bc 2a ae 0e bd 42 98 ef bc
       -0.09458467 -0.012723952 -0.034834065 -0.029247407
000040 b9 79 57 bd b3 bf 71 bc 53 57 39 3b 09 db 02 bd
       -0.05260632 -0.014755177 0.002828081 -0.03194717
000050 f6 54 78 bd e1 b1 88 bd 59 53 ae bd 8e ac 92 3c
       -0.0606279 -0.06674553 -0.08511991 0.017904546
000060 aa bb 1f bd 54 13 27 3d 12 b3 17 ba 65 51 fe bc
       -0.03899733 0.040789917 -0.00057868764 -0.031044671
000070 77 0c ba 3d 29 a6 a4 3d ed ff fd 3c 27 6f aa bd
       0.09084409 0.08039505 0.031005824 -0.08321982
000080 1d 95 de bd 0c c1 8a bd 6e 07 bf bd 34 0b 44 bd
       -0.10868285 -0.06775102 -0.09327589 -0.047862247
000090 be 8b 97 bd 20 66 c4 bd fc cb 5f bd 8a 6f 97 bd
       -0.073997006 -0.09589791 -0.054637894 -0.07394321
0000a0 80 f7 b0 bd 61 ee ea bd da 7d d3 bd 09 46 9e bc
       -0.08640957 -0.114712484 -0.10326739 -0.019320505
0000b0 dd 69 cf bd 51 53 70 bd 6f a9 c3 bd da a2 56 bd
       -0.10127614 -0.058673207 -0.09553801 -0.0524014
0000c0 c6 3a 1f bd c8 1d 0b bd 6b 2c b7 3d 4d 37 39 bd
       -0.03887441 -0.03396395 0.08944019 -0.045218755
0000d0 7a 71 a6 bc 06 ca 57 3d 73 35 89 3d 3c 5b 71 3d
       -0.020317782 0.0526829 0.06699648 0.0589249
0000e0 64 f5 74 bd a5 0e 42 bd 03 17 98 bc 1a 2b 26 3c
       -0.059804335 -0.047377247 -0.01856566 0.010142112
0000f0 b8 cf 20 3d e3 68 9d bd 20 f2 dd bc e7 03 96 3d
       0.039260596 -0.07686021 -0.027092993 0.07324963
000100 83 1d 3d bc ea 9f 13 bd 00 33 ed bb 5c 80 02 3c
       -0.011542681 -0.036041178 -0.0072387457 0.007965174
000110 eb d7 80 3d 6f 11 e9 bd 3e 24 01 bd 28 56 b5 bd
       0.06291183 -0.11380278 -0.031528704 -0.088543236
000120 d5 ff a4 bd 19 e5 4d bd 96 f6 da bc 20 7b 43 3c
       -0.080566086 -0.050267313 -0.02672891 0.011931211
000130 7d 98 67 bd 71 ca a6 bd b5 30 99 bd 40 45 8d 3d
       -0.05654191 -0.081440814 -0.07479993 0.06897974
000140 6b c8 8d bc 05 df 17 bd 72 bd c4 bc 88 ed 75 bc
       -0.01730748 -0.037077922 -0.024016116 -0.015010245
000150 67 57 42 bd 90 5f 6d bd b8 50 b7 3c 81 2b 72 3c
       -0.047446635 -0.057952464 0.022377357 0.01478088
000160 0b 49 6b bc e0 34 cb bd 58 3b 23 3b 89 c4 e0 3c
       -0.0143606765 -0.099221945 0.0024907198 0.027437465
000170 4b 71 5b 3d 5e 6f 59 bb 4a 2b bc bb 7e 9c 10 bc
       0.05357484 -0.0033177952 -0.005742465 -0.008826373
000180 ef f3 7a bd ea 8b cf bd e7 95 7a bb a7 93 24 bc
       -0.06126779 -0.10134108 -0.0038236321 -0.010044969
000190 9e 45 02 3d b7 7f 14 bd 41 04 72 bd 95 a3 23 bd
       0.031804673 -0.03625461 -0.059086088 -0.039950926
0001a0 b6 18 e3 bb c0 d3 9d bc 86 c7 ff bd 2d e1 50 bd
       -0.006930436 -0.01926601 -0.12489228 -0.050995994
0001b0 16 78 92 bd 0c dd 00 bd ae ed 67 ba 1d d0 9f bd
       -0.07151811 -0.031460807 -0.0008847368 -0.07803366
0001c0 13 31 3c bd 94 a8 80 3d a7 b0 83 3d 9b c8 7f bd
       -0.04594524 0.06282154 0.06430178 -0.06244717
0001d0 29 43 b2 bd d2 dd 51 bd de 9d dc 3d 11 7e 9d bd
       -0.08704216 -0.051236935 0.10772298 -0.07690061
0001e0 8d 12 03 be c4 60 ca bc 31 0b e7 3c 5d 8b 35 3d
       -0.12800045 -0.024704345 0.028203579 0.04432236
0001f0 d8 31 ad bd b3 f8 80 bc 45 d0 da bc 98 52 1c 3d
       -0.084567726 -0.015743589 -0.026710639 0.038164705
000200 87 f7 bf 3c 02 b5 27 3c 3a ca e7 3c 04 3f 80 bd
       0.02343346 0.010236027 0.028294671 -0.06262019
000210 76 0e 74 bc f3 e1 03 bd f2 7a 33 3d f5 4d 8e bc
       -0.014896026 -0.032197904 0.04381842 -0.017371157
000220 f0 c0 f6 bd ae 15 06 bb 9e ce ce bc c6 72 a8 bd
       -0.12048519 -0.00204597 -0.025245007 -0.08225016
000230 b4 15 92 bd d4 d5 0f be 02 aa ab bd fa 1b 1d bd
       -0.07133046 -0.14046413 -0.08382036 -0.03835676
000240 83 25 5f bc 7c be 86 bd 36 36 b9 bd d4 b6 18 3c
       -0.013619783 -0.06579301 -0.09043543 0.009320933
000250 62 9d 0b 3d b5 61 c0 bd ef eb 3a 3d 2c d5 23 3d
       0.03408564 -0.09393636 0.04563516 0.03999822
000260 c1 fc 17 bd 93 e1 2e bc 0a 20 ac bd cc 73 e9 3c
       -0.03710628 -0.010673898 -0.084045485 0.028497599
000270 87 df 72 bd b4 f5 90 3d c3 13 bb 3d 8a 4a 47 3e
       -0.059295204 0.07078114 0.091346286 0.19462028
000280 0e 3c 23 3d 20 0f 6d 3d e3 d6 2d 3d 2a 9d f0 3d
       0.039852194 0.057875752 0.04244126 0.11748727
000290 e5 31 f5 3d 12 60 0a bc 56 a4 35 bb ac 03 95 3d
       0.11972407 -0.0084457565 -0.002771636 0.07276091
0002a0 10 40 d9 3d 4f 28 f6 3b 9a d8 37 3c be 72 17 bd
       0.10607922 0.0075121294 0.011221075 -0.03697466
0002b0 69 f6 bb 3d d2 c0 eb 3c 82 7f eb bd 37 52 2d 3d
       0.091778584 0.028778467 -0.114989296 0.042314734
0002c0 3e b1 b3 bd d9 d4 be 3c 81 8e cf bd 34 c6 95 3c
       -0.08774041 0.023294853 -0.10134602 0.018282987
0002d0 f6 b8 72 3c f3 e0 01 3d 53 4f 6f bc d9 fc bf 3d
       0.014814606 0.03170867 -0.014606315 0.09374399
0002e0 70 91 7d bc 6f 37 9c bd e4 12 23 ba 3f e4 10 3d
       -0.0154765695 -0.076277606 -0.00062207715 0.035373922
0002f0 b5 13 87 3d ec 5f c1 bd 08 be a3 3c b0 95 68 3b
       0.06595556 -0.09442124 0.019988075 0.0035489611
000300 64 bc 5f bd bf 73 ba bd 02 cd ac 3c 32 97 3b bd
       -0.054623023 -0.09104108 0.02109385 -0.045798488
000310 9a 2f ca bc c5 49 1a be 9e ff ec bc c2 0c 31 3d
       -0.024680901 -0.15067203 -0.028930482 0.043225057
000320 8e 08 96 3d 78 9e b1 3d 20 12 6c bd e3 29 22 bd
       0.073258504 0.08672804 -0.057634473 -0.039590728
000330 f5 8a 5e 3c 84 a6 18 3d 29 05 2a 3d 02 4d a7 bd
       0.013582935 0.037268177 0.041508827 -0.08168985
000340 be 02 91 3c 93 4f 5d 3d 36 93 1d 3e 1c ba 91 3d
       0.017701503 0.054030966 0.15388188 0.07115576
000350 15 60 0a be 05 cf 6d 3d d9 13 90 3d ce 08 3c 3d
       -0.13513215 0.058058757 0.07035036 0.045906834
000360 a7 d1 c7 3c 3a be 3f bd 81 05 b7 3d 8b a1 0c 3e
       0.024391962 -0.046812274 0.08936597 0.13733499
000370 aa d8 0c 3e dd 2e 83 bc c4 30 a7 bc 1a 2f 0e 3e
       0.13754526 -0.016013557 -0.020408995 0.13885155
000380 d7 6f dc 3d dd 8a 8d 3d 4e 44 63 3d 65 af b2 3b
       0.10763519 0.06911252 0.055485062 0.0054530376
000390 08 a8 a0 3d 68 fc 0e bd f5 c3 15 3d 0f 4d dd 3c
       0.078445494 -0.034908682 0.036563832 0.027014283
0003a0 62 af bd 3c 9b 9d 0b bd e3 b3 c1 bd 1d 7c b0 3c
       0.023154918 -0.03408585 -0.09458139 0.021543557
0003b0 bd 50 8a bd b0 91 8d bd 5d 51 bb bd 10 76 84 bd
       -0.06753681 -0.06912553 -0.09146378 -0.06467831
0003c0 5b 7d ec bc 8d 8f 3e bd 7e 02 6e bd c6 33 cf bd
       -0.028868368 -0.04652362 -0.058107845 -0.10117297
0003d0 aa 76 0f 3d ad ef ed bc 91 25 40 bd 42 2c 77 3b
       0.035025276 -0.02904495 -0.046910826 0.0037715589
0003e0 43 18 c5 bc e5 1f 81 3d bd 01 66 bc 8f 93 c2 bd
       -0.02405942 0.063049115 -0.0140385 -0.09500801
0003f0 8e ef ad bd 57 e4 61 bd 0a 96 c2 bc ae a5 a3 bd
       -0.08492957 -0.055149402 -0.023753185 -0.07990585

conv2.bias f4 [20]
000000 08 41 1c 3d 13 48 43 bd f7 64 ce bb e1 75 0d bd
       0.038147956 -0.047676157 -0.006298657 -0.034536246
000010 98 de 5b bd 31 e8 a1 bc 2c d8 ce 3c 40 3c e7 bc
       -0.05367908 -0.019764038 0.025249563 -0.028226972
000020 b2 a9 86 bd 97 75 06 3d a2 d3 3a bd d1 ab 95 bd
       -0.065753356 0.032826986 -0.045611985 -0.07308162
000030 0e 75 11 bd ea 34 74 bb fa 9f 8a bd 5e a8 29 bc
       -0.035512023 -0.0037262985 -0.06768794 -0.010355083
000040 0f 8a 1a bd 8a 6a cb bc 54 76 8c 3c 4a 61 f3 3b
       -0.03772932 -0.024831075 0.017146267 0.0074273692

fc1.weight f4 [50, 320]
000000 04 e6 e4 bb f3 14 b1 bc 71 cf df 3d c6 cb 94 3d
       -0.006985428 -0.021616435 0.10928238 0.07265429
000010 a3 ca b1 bc 29 49 46 3d c2 5d cd bb 1f f0 ff 3b
       -0.02170307 0.048409615 -0.0062672803 0.007810607
000020 1e c4 0b bd f6 69 74 bc 58 e6 19 bd 4f 72 18 bd
       -0.03412258 -0.014917841 -0.03757319 -0.03721839
000030 eb 55 66 3c c0 c7 a1 3d 30 c1 3b 3d 10 49 3a 3d
       0.01405857 0.078994274 0.045838535 0.045479834
000040 7c 8d c1 bc 4a 2e 2c bd 7d b7 fd 3c 3c 98 87 3c
       -0.023627035 -0.042036332 0.030971283 0.016552083
000050 60 47 2f 3a 0f 42 90 bb 39 0c 74 3d 60 01 c2 3d
       0.0006686356 -0.004402406 0.05958197 0.094729185
000060 d0 b7 64 3b 58 37 f3 3c aa 6b 0a 3d c5 08 89 3d
       0.00348996 0.029689476 0.033794083 0.06691126
000070 27 25 0d be b2 89 68 bd ea 7b 90 3c 73 e7 64 bb
       -0.13783704 -0.05677194 0.017637212 -0.0034927994
000080 49 f1 5d 3c 5e 2b fe bb 72 0c 62 bb 93 2b 35 3d
       0.013546296 -0.0077566346 -0.0034492281 0.04423101
000090 d8 93 8e 3c f7 85 46 3c a8 c9 1a bd a4 a5 47 bd
       0.017404482 0.012116901 -0.03778997 -0.04874195
0000a0 f6 87 2b bd 8c c0 4a bd 6b e2 82 3d b7 5d f8 bc
       -0.04187771 -0.049500033 0.06390842 -0.030318124
0000b0 0e 71 1b bd e5 ce 60 3d 5f 72 b5 3d dc 20 59 3c
       -0.037949614 0.05488481 0.08859705 0.013252463
0000c0 1e 09 0c bd c2 51 2a 3c 89 0a cf bc f5 9c d3 3c
       -0.034188382 0.010395469 -0.025273578 0.025831679
0000d0 35 18 12 bd d0 6e db bc 53 9d 67 bd a7 18 0a bc
       -0.035667617 -0.026786238 -0.05654652 -0.008428729
0000e0 0e 18 e8 bd 2f 6f 2a 3b f0 3b b1 3c 42 73 23 bd
       -0.11332713 0.0026006212 0.021635026 -0.03990484
0000f0 4e af bd 3d a7 63 21 3e fb 06 81 3d 70 dc 12 3c
       0.09261952 0.1576067 0.063001595 0.008963689
000100 8b 39 4a bd ad 3d 05 bd d1 b8 cf bc 22 89 79 3a
       -0.049371284 -0.03252952 -0.025356682 0.00095190306
000110 fd 99 34 bd 03 cd 70 3c f7 75 b3 3c 0a 8f f3 bc
       -0.044092167 0.014697316 0.021906836 -0.029731292
000120 9e a1 ce bc 32 49 2f 3d 09 ad 6a 3c eb 5f 3a bd
       -0.02522355 0.042794414 0.014323481 -0.04550163
000130 b9 57 26 3d 9e f1 ce 3d f2 c9 a2 3c 02 43 88 bd
       0.040611003 0.101046786 0.019871686 -0.06653406
000140 48 b0 02 bd 48 48 d8 3c b1 cc 44 bc 35 1b 09 3d
       -0.031906396 0.026401654 -0.012011693 0.033473212
000150 8d f0 bd bb 57 34 7d 3b ba 0e 2b 3c af 6e 48 bc
       -0.005796498 0.0038635933 0.010440523 -0.01223342
000160 13 cf 5e 3d 30 65 93 3d 42 0c 40 3d d2 7f df bc
       0.0543967 0.07197034 0.04688669 -0.02728263
000170 cf cd 22 3d 30 c4 e3 3b b0 01 75 bd 64 d2 a9 bd
       0.039747056 0.0069508776 -0.059816062 -0.08292082
000180 c8 8a 7f 3c 62 d2 9a bc 55 f2 61 3c c1 d9 74 3d
       0.015597053 -0.018899146 0.013790687 0.05977798
000190 53 39 29 bd cf ea 5f bd 09 ae 24 3d 42 8f 23 3d
       -0.041314434 -0.05466729 0.040205035 0.039931543
0001a0 c1 a2 22 3d 0e e6 d9 3c 09 6f ef bc c2 33 49 3c
       0.039705995 0.026598956 -0.02922775 0.012280406
0001b0 27 4a 96 3d 46 f7 46 3d 33 ba 78 3d 73 0b ff 3c
       0.07338362 0.048575662 0.06072445 0.03113339
0001c0 c2 b7 c3 3c 21 1c 4b 3c 78 46 8e 3c a3 48 d6 3d
       0.023891333 0.012396843 0.017367586 0.10463073
0001d0 18 27 1a 3d a2 60 ab 3d 69 56 d9 3c 60 20 e2 3c
       0.03763494 0.083680406 0.026530461 0.027603328
0001e0 33 50 af bb 46 c8 30 3c c4 f9 65 3c 0e 91 87 bc
       -0.0053501367 0.010789936 0.0140366 -0.01654866
0001f0 f1 ce d8 bd 3c 29 73 bd 2f 0e c1 3c 14 af d0 bc
       -0.10586346 -0.059365496 0.023566334 -0.025474109
000200 d0 70 45 3d e4 f1 48 3d 7f 76 e6 3c 33 ea ee 3c
       0.04820329 0.04905881 0.028132675 0.02916441
000210 01 9e 21 3d ba 94 25 bd 15 8e bd bc 72 a1 09 3d
       0.039457325 -0.04042504 -0.023139039 0.033601232
000220 bb 23 30 3c 3a bf ef 3c c4 ee 3e bc 29 63 b3 bb
       0.010750706 0.029265989 -0.011653606 -0.0054744673
000230 a5 72 14 bd e8 1e 8d bc 89 b2 da 3c 8d 78 62 3d
       -0.036242146 -0.017226651 0.02669646 0.055290747
000240 7a 34 bb 3c 51 f7 82 bc 35 e7 ff 3c 92 c1 17 bd
       0.022852171 -0.01598707 0.031238178 -0.037049837
000250 b5 52 84 bc 62 ae 4d bc 1b b0 c2 3c f7 ef f9 bb
       -0.016152719 -0.012553783 0.023765614 -0.007627483
000260 4c 25 af bc 74 8e 5b bc d5 8a ed bb 1a 3a 6a bc
       -0.02138009 -0.013400663 -0.007249216 -0.014296079
000270 93 78 3a 3c 5f 08 e0 3c a5 5a 46 bd e0 51 75 bc
       0.011381286 0.027347742 -0.04842629 -0.014973134
000280 87 1d 0c bd 29 c7 a2 3c 19 4e 33 3d 92 2e c6 bc
       -0.034207847 0.019870358 0.04377565 -0.024192128
000290 39 98 55 bd f2 a0 16 3d aa 45 cf bc bf d7 10 3d
       -0.052147124 0.036774583 -0.025301773 0.035362
0002a0 22 ef ad 3d 7d 9e 9e 3c 0d 10 d7 3b 6d 03 ca bc
       0.084928766 0.019362682 0.0065631927 -0.024659837
0002b0 8c 97 94 3d bc 17 33 bd 2c 96 5e 3a c4 01 11 bd
       0.07255468 -0.043723807 0.0008491005 -0.035402074
0002c0 87 71 3b 3d 4b af 00 3d 49 a7 95 3d b9 28 1e 3a
       0.045762565 0.031417172 0.07307298 0.000603329
0002d0 ac 6c 4c 3d 31 22 e5 bb 4d fc 6e 3d 21 a2 80 bc
       0.049908325 -0.0069926013 0.05834608 -0.01570231
0002e0 fa 08 45 3c 0c 21 30 3d ce 62 91 bc c9 b1 7e bd
       0.012026066 0.043000266 -0.017747309 -0.062181268
0002f0 31 f3 0b bc fc f1 1b bc f5 63 f7 bc 64 28 45 bd
       -0.008541868 -0.009518143 -0.03019903 -0.048134223
000300 d3 45 d0 3c d3 93 52 3d 7e 6b d2 3b f2 f3 dd 3b
       0.02542392 0.051410507 0.0064215055 0.0067734653
000310 52 11 cc bc e6 e2 28 bd 78 42 bc 3b d8 e2 04 bd
       -0.024910603 -0.041232012 0.0057452284 -0.032442898
000320 e5 22 01 3d 02 dc 97 3c 24 05 23 3d 15 82 88 bc
       0.03152742 0.018537525 0.039799824 -0.01666359
000330 66 02 b9 bd a4 0c ee bb ea f5 77 3c d1 87 7c 3c
       -0.090336606 -0.0072646905 0.015134314 0.0154132405
000340 05 80 b2 3d af 73 80 3c db ea b9 3c b7 ce 74 bc
       0.08715824 0.015680162 0.022694996 -0.014941863
000350 bd 63 23 bd 4b 49 06 bc 49 c7 5e bc eb f4 17 bd
       -0.03989004 -0.008196185 -0.013597318 -0.037098806
000360 f8 af 24 bd 54 a0 d1 3c 7a 73 1b 3d e8 10 a6 3c
       -0.04020688 0.025589146 0.037951924 0.020271733
000370 61 d4 d9 3d fd 6e e5 3c 20 c9 19 bd 4e 12 54 bd
       0.10636211 0.028007025 -0.037545323 -0.05177527
000380 ff ff 40 3d 0c 2f 63 bb 10 90 db 3b 36 c8 80 bc
       0.047119137 -0.0034665493 0.006700523 -0.015720468
000390 85 a4 75 bd 3d a0 e5 3b 4d 2d 23 3d 25 60 99 bc
       -0.05997135 0.0070076273 0.039838124 -0.018722603
0003a0 99 00 fb bc 3e 05 98 3c 9f bd 7e bc 29 ea 42 bc
       -0.030639933 0.018557187 -0.015548139 -0.011896648
0003b0 72 2d f2 3d 88 74 81 3d 7d 2a 67 bd a8 8f 1e bd
       0.11825074 0.06321055 -0.056437004 -0.03871122
0003c0 e3 b0 ac bc 42 bf 29 3d 57 ba 50 bc 19 ee ad 3d
       -0.02108044 0.041442163 -0.012739739 0.08492679
0003d0 49 51 9e bd 82 3c 26 bc 33 a9 05 3d d6 6c 74 bd
       -0.07730348 -0.010146262 0.032632064 -0.059674107
0003e0 82 aa d3 bc 51 f6 c5 bc 52 3f fd bb cf 6e 21 bd
       -0.02583814 -0.024165304 -0.0077284956 -0.039412316
0003f0 6d a0 b4 3c 8d cf 44 3d 4a b2 82 bd 44 96 83 bd
       0.022049153 0.0480495 -0.06381662 -0.06425145

fc1.bias f4 [50]
000000 a7 2f 4a 3d a5 3e 1b 3d 5f cd 69 bb 7b c5 c3 bc
       0.04936185 0.03790154 -0.003567539 -0.023897877
000010 37 de 27 3c e5 2c c1 bb 6f fc 49 3d 2f 59 f7 3c
       0.010245851 -0.0058952444 0.049313005 0.030193893
000020 4b 35 72 bc bb 7b 29 bc 6d 02 a9 3c 0b 39 ce bc
       -0.014783214 -0.010344441 0.02063104 -0.025173685
000030 6b d5 aa 3d 35 56 92 3c 37 6f 75 3d 3c a4 f2 bc
       0.083414875 0.017863372 0.059920516 -0.029619329
000040 fb e5 4c 39 1a b9 89 3d 5d f3 11 3d d5 fa b4 3d
       0.0001954063 0.067247584 0.03563248 0.08836905
000050 3c e6 8d 3d 9c 34 51 3c 90 66 0b 3d be d8 66 3c
       0.06928679 0.012768891 0.034033358 0.014089761
000060 86 e8 02 bd 14 e1 9c 38 83 c6 97 bc 2b 32 71 3d
       -0.031960033 7.480584e-05 -0.018527275 0.058885735
000070 76 12 2b 3c 63 bf 48 bd 81 9c f0 bc bd 5c 3a 3d
       0.010441413 -0.049010646 -0.029371502 0.0454986
000080 a3 fd ab 39 7b d0 8c bc 5f 27 5e 3d df f5 98 3c
       0.00032804636 -0.017189255 0.054236766 0.018671928
000090 1a de a6 bb 78 a3 a4 3d c4 45 57 3d 2d 10 63 bd
       -0.0050923945 0.08038992 0.052556768 -0.05543535
0000a0 58 73 52 3c 6f e3 12 3c d7 ed 80 bd d8 c3 24 bb
       0.012844883 0.008965357 -0.06295364 -0.0025141146
0000b0 32 66 8b 3d 63 ed 93 3c e3 53 90 3d 07 40 47 3c
       0.068066016 0.01805753 0.0704725 0.012161261
0000c0 14 ba 1b bc c9 74 81 bb
       -0.009504814 -0.0039506895

fc2.weight f4 [10, 50]
000000 e0 c3 81 be af 7a 4c be 12 67 1f be 93 fd 33 be
       -0.25344753 -0.19968675 -0.15566662 -0.175772
000010 d0 f9 12 bd 56 02 5f 3d 0a bb b5 bd ae cf 13 be
       -0.03588277 0.054445587 -0.088735655 -0.14434692
000020 33 ac 03 3e 0e 44 58 3d f2 a0 34 3d 94 dc ab bd
       0.12858658 0.052799277 0.044098802 -0.08391681
000030 e7 1f 4b 3e 2d 04 8b 3e 6b fd 15 3e 16 03 ae bd
       0.19836389 0.27151623 0.14647453 -0.08496682
000040 c5 20 3a 3e aa e2 7a be 61 98 17 be 32 fe 56 be
       0.18176563 -0.24500528 -0.14804222 -0.20995405
000050 2a f4 41 be 70 de 58 be fd 12 3e be 9d ee 80 be
       -0.18940797 -0.21178603 -0.18561931 -0.25182047
000060 10 87 36 3e 6e 9e 57 3d c3 97 ad bd 09 71 df bd
       0.1782496 0.052641325 -0.08476212 -0.109102316
000070 aa b3 22 3e 2a fa 77 3d 9d ae 1b be 5b 3b 3f 3e
       0.15888849 0.06054131 -0.15203328 0.18674986
000080 29 be e1 3d c0 5c 6d bb dc 0d ad bd 50 7b 3f be
       0.11022598 -0.0036218613 -0.08449909 -0.18699384
000090 9a a6 17 be f5 1d 34 be 4f 2a fc 3d ea 39 d5 bd
       -0.14809647 -0.17589553 0.12312757 -0.10411437
0000a0 12 24 14 3e 5f 4f 7b 3e 7d f7 30 bd ed fc cc bd
       0.14466885 0.24541996 -0.043204773 -0.10009179
0000b0 40 99 13 3e 18 89 25 3d e0 b8 62 3e 9f 59 88 3e
       0.14413929 0.040413946 0.22140837 0.26630875
0000c0 bc 25 40 be ad a9 0f 3e e2 7f 8a 3d 53 ef 05 3e
       -0.18764395 0.1402957 0.06762673 0.13079576
0000d0 92 6a 6e be 51 60 01 3e 27 63 a6 bd 1e da 4e be
       -0.23282841 0.12634398 -0.081243806 -0.20200393
0000e0 5a db 04 3e cf f1 97 3d c7 c5 66 be b6 d1 9d bc
       0.12974301 0.07419168 -0.22536384 -0.019265037
0000f0 43 16 63 3e 5e 47 69 be d1 0c fa 3d 4f 1c 7b bd
       0.22176461 -0.2278113 0.12209476 -0.061306294
000100 ed 88 6c be a6 bc 47 3d 5f 33 31 be 84 6a 24 3e
       -0.23099108 0.048763894 -0.17304753 0.16056257
000110 c3 eb 40 3e 0f dd 48 3e d5 ff 20 3e ca 8e 83 be
       0.18839936 0.19615577 0.15722592 -0.25694877
000120 5c 11 96 be 3e 2f 3c 3e ba 9a 07 3c b6 94 af 3e
       -0.2931012 0.18377396 0.008276636 0.34293145
000130 9b dd 4b 3e 31 1d eb 3d b1 13 3e be b7 27 13 be
       0.19908755 0.11480177 -0.18562199 -0.14370619
000140 e8 b2 17 3e aa 5d 67 bd f8 9b 16 be 35 e0 35 be
       0.14814341 -0.05648581 -0.14707935 -0.1776131
000150 b5 4a 2a bd 39 9c 4b 3e 50 08 97 3c 20 dd 4f 3e
       -0.041575152 0.19883813 0.01843658 0.20299196
000160 c9 33 2b 3d b7 44 3f be 5e 90 26 3e 5c 3c f0 bd
       0.041797433 -0.18678556 0.16266009 -0.11730263
000170 49 41 07 be 22 eb 6d 3e 66 83 5e be e6 7e 26 3d
       -0.13208498 0.23234227 -0.21729812 0.040648364
000180 0a 6a f1 3d 7a 5a c9 bd 16 cb 86 bd b3 1e 30 be
       0.117878035 -0.0983171 -0.06581704 -0.17199211
000190 6e 4a 34 be f0 17 ef 3d 00 c0 02 3e b6 a0 d7 3d
       -0.17606518 0.116744876 0.12768555 0.105287
0001a0 e6 b1 1f 3e 79 63 5e 3d 09 dd 2e 3e d2 5c 1f 3e
       0.15595207 0.054294083 0.17076506 0.15562752
0001b0 5e 8f ca 3d 7b 47 3e 3e 2c 74 00 3d 9f 17 0a 3e
       0.09890626 0.18581955 0.03136079 0.13485573
0001c0 09 d0 ab 3d 51 f4 94 bd 74 2d d6 bd 1c 19 18 be
       0.08389289 -0.07273162 -0.10457888 -0.14853328
0001d0 a4 35 09 be cf 7d 2f 3e e7 44 f3 bd b6 43 89 be
       -0.13399369 0.17137836 -0.118783765 -0.26809472
0001e0 83 11 fc bd 6f a1 a6 bd 9d df 28 be 93 11 5f 3e
       -0.123080276 -0.0813626 -0.16491552 0.21784048
0001f0 7b ab df bd 1c e2 97 3d 03 d7 ec bd 9a aa 08 be
       -0.10921379 0.07416174 -0.11564448 -0.1334633
000200 4b dc 73 bb da 2f d4 bd b3 c0 44 3e 9f cf 86 3d
       -0.0037210162 -0.103606895 0.19214134 0.06582569
000210 12 f3 fb bd 79 de 40 be c8 88 37 3e c3 70 b1 bd
       -0.12302221 -0.18834867 0.17923272 -0.08664086
000220 20 89 25 3e bc a4 5a 3e 7b b5 2d be 7e c7 5e bd
       0.1616559 0.21351904 -0.1696376 -0.05438947
000230 bc ff 00 bc 26 fd 54 3e 1d 99 00 3e ca 6c e8 bc
       -0.007873472 0.20799693 0.12558408 -0.028372187
000240 59 32 a1 bd 87 75 d4 3d ad 13 02 3e d7 92 65 3e
       -0.07870931 0.10373979 0.12702818 0.22419296
000250 f8 01 01 3e da c1 6d 3d 4b be 06 3e 5a f1 13 be
       0.12598407 0.0580462 0.13158529 -0.14447537
000260 bd 5c 02 3e 01 74 ee 3d 4f ac 16 bd 68 ea 4e 3d
       0.1273069 0.1164322 -0.03678542 0.050516516
000270 ce 2a 16 be b4 49 4e 3e ac 8c 0a be 3d 08 61 bd
       -0.14664766 0.20145303 -0.13530225 -0.054939497
000280 0d 1b dd bc 93 43 c4 bd a5 76 3d be 0a 9a 72 bd
       -0.026990438 -0.09583201 -0.1850229 -0.059228934
000290 30 6b 8a bd 7b 04 2c 3e ac ee ed bc 43 12 29 3e
       -0.06758726 0.16798584 -0.029044472 0.16510873
0002a0 d6 b2 19 3e 4a d5 01 be 27 d0 38 be b8 c6 10 be
       0.15009627 -0.1267902 -0.18048154 -0.14138305
0002b0 65 7a 0b 3e 30 5a 1b bd 85 d0 29 3e 67 e4 26 be
       0.13620909 -0.037927806 0.1658345 -0.16298066
0002c0 7c d4 0f be 98 18 37 3e e7 5f 99 bd bd 39 05 3e
       -0.140459 0.17880476 -0.07488995 0.13010307
0002d0 ce 3c 35 3e e8 b4 15 3e e5 be 42 3e 64 35 42 bd
       0.17698976 0.14619792 0.19018133 -0.0474142
0002e0 a4 ab 3c be cb a6 28 be 26 1e 2f 3e 30 b2 4e 3e
       -0.1842485 -0.16469876 0.17101344 0.2018516
0002f0 8e 5c 2d be b4 2b 6f 3e f3 df 43 bd eb 85 7c bc
       -0.16929838 0.23356515 -0.047820996 -0.015412788
000300 3d 4f bd bd d9 06 57 bd 8b d3 f7 3c 01 8d ef 3d
       -0.09243629 -0.052496765 0.030252239 0.11696816
000310 ac 93 7a bd b1 f0 7c bd ad 47 0e 3e e6 3a c1 3d
       -0.061175987 -0.06175298 0.1389453 0.09435062
000320 7c 93 2b 3e 71 b3 d3 3d c3 e9 1f 3e 51 51 f3 bd
       0.1675548 0.1033696 0.15616517 -0.11880744
000330 68 1e 02 3e c3 03 a7 be fd eb 5c 3e b7 cf bb 3d
       0.12706912 -0.32620057 0.21574397 0.09170478
000340 c9 e5 b5 3d ca 30 9a bd 27 64 89 3e 14 f7 90 3e
       0.08881719 -0.07528837 0.26834223 0.28313506
000350 88 6d 04 be 6b 09 55 bd 62 52 df bd 79 8a 46 be
       -0.12932408 -0.052010935 -0.10904385 -0.1938876
000360 26 9c 81 be 29 02 3a be bc 9f 75 3e ab 4c 99 3d
       -0.25314444 -0.18164887 0.23986715 0.074853264
000370 0e 38 40 3e 2c aa 58 3e 4a 3f 2f 3d 9d 5f 9b bd
       0.18771383 0.21158665 0.042784967 -0.07586596
000380 78 ae dc bd 95 be 61 bc 24 a6 45 3c b8 ef 20 3e
       -0.10775465 -0.013778348 0.012063537 0.15716445
000390 08 52 80 be 85 4d 55 be cc 04 0a be 7a e7 6b be
       -0.25062585 -0.20830353 -0.13478392 -0.2303752
0003a0 65 49 b3 bd a9 70 8c 3e a7 6d 8c 3e fa 72 4c 3e
       -0.08754233 0.27429703 0.27427408 0.19965735
0003b0 3a 32 f9 bd 13 ba 8e bd da d5 b5 bd 06 5b 94 3d
       -0.12167783 -0.069690846 -0.088786796 0.07243924
0003c0 2b b4 2f be 5b de ef 3d d6 56 b8 bd bc 62 d6 bd
       -0.17158572 0.11712333 -0.09000938 -0.10468051
0003d0 f9 30 67 3e 76 a7 df bc 81 01 76 3c a3 09 9b bc
       0.22577275 -0.027301531 0.015015007 -0.018925494
0003e0 a0 a8 14 be 05 2b 7b be db a1 e7 3d 80 20 ef 3d
       -0.1451745 -0.2452813 0.11310168 0.11676121
0003f0 e0 6a d8 bd 09 b7 67 be 12 0a 14 3e db 19 40 be
       -0.1056726 -0.22628416 0.14456967 -0.18759863

fc2.bias f4 [10]
000000 0c f8 e8 3d f5 67 46 3e ef f3 cf bd 8f aa 2e be
       0.11375436 0.19375594 -0.101539485 -0.1705725
000010 50 2d 4e bd 16 11 a5 bd e2 0c 1b bd 62 51 49 bd
       -0.050336182 -0.080598995 -0.037854083 -0.04914988
000020 23 93 5d 3e da 41 1d 3d
       0.2163816 0.03839288
