Modified_CNN/CNN/model.pth (torch, 89851 bytes, 8 tensors)

conv1.weight f4 [10, 1, 5, 5]
000000 fb 61 9e bd f7 71 99 3e 69 a1 29 3e 27 12 5c 3e
       -0.07733532 0.2996976 0.1656548 0.214913
000010 92 08 87 3e 6c a4 8d 3e 53 1e b8 3e 9a e7 8a 3e
       0.26373726 0.27664506 0.35960636 0.27129823
000020 cc 7c 5f 3e b5 30 80 bd 93 9b dc bd e2 94 7c bd
       0.2182495 -0.0625929 -0.10771861 -0.061665423
000030 cf 4c da 3d 71 83 fe 3c 42 f7 84 bd 8e c7 d7 bd
       0.10659181 0.031068536 -0.06492473 -0.10536109
000040 f7 97 a8 be 50 ef a8 be b3 95 83 be 8d 56 bd be
       -0.3292844 -0.3299508 -0.2570015 -0.36980096
000050 2d 09 67 bc 92 99 5d be a2 c6 99 be e2 c6 6e be
       -0.014101309 -0.21640614 -0.30034357 -0.23318055
000060 56 7f 35 be 44 1b a8 3d 5c 6e 80 3e 3b 56 c9 3e
       -0.17724356 0.082083255 0.25084198 0.393236
000070 f3 58 29 3e f1 3e 93 be 45 0e 83 be 46 f2 f0 bd
       0.16537838 -0.28758958 -0.25596824 -0.1176496
000080 7b eb bd 3e 33 cf e3 3e 2b b0 85 3e 77 c4 96 be
       0.3709372 0.44494018 0.26110968 -0.29446766
000090 76 9c 0b bd d5 05 32 3c 70 ca cd 3e b9 30 c5 3e
       -0.03408476 0.010865648 0.4019351 0.38513735
0000a0 cf 5c d3 be c1 94 45 be a1 21 8d be 46 2c 27 be
       -0.41281745 -0.19295026 -0.2756472 -0.16325483
0000b0 13 75 58 3e 2c 0a 4a be c6 bf bb be f7 40 a1 be
       0.2113841 -0.19730443 -0.3666975 -0.31494877
0000c0 ff 74 6c be 0b 6f cc 3c 24 17 77 3e b0 00 a6 3e
       -0.23091505 0.024955293 0.24129921 0.324224
0000d0 14 33 75 3d b4 28 88 bd 06 29 5f 3e 04 e1 a1 bc
       0.059863165 -0.066483885 0.21792993 -0.019760616
0000e0 1b fe ca bc e2 ac 1b 3e 74 06 e1 3d 01 9a 4e 3e
       -0.02477937 0.15202668 0.10987559 0.20175935
0000f0 ff 7e 2c be 45 68 9f 3c c8 73 56 3d 15 06 23 3e
       -0.1684532 0.0194589 0.05235651 0.15920289
000100 11 8b 0f be de 8b 49 be f5 13 61 3e 43 a5 b9 3d
       -0.14017893 -0.19682261 0.21980269 0.09064724
000110 92 c1 27 3e c7 df 46 be 90 69 b8 bc f4 4f 42 3e
       0.16382435 -0.19421302 -0.022511274 0.18975812
000120 24 20 d1 3d 6e 9d a4 bd 4f 3b e4 be c3 76 95 3c
       0.102112085 -0.0803784 -0.445765 0.018245107
000130 a0 f4 c6 be a4 b6 db be 83 32 14 be f3 15 1c bd
       -0.3885851 -0.4291278 -0.14472394 -0.03810687
000140 78 2f ae 3e cf e3 11 bd c3 f5 cf be 4e 61 2b 3c
       0.3402059 -0.035617646 -0.4061719 0.010460211
000150 d1 c7 9b bd 66 0c dd 3e 79 4b cf 3e 4c 75 07 be
       -0.07606471 0.43173522 0.4048727 -0.13228339
000160 08 61 cd bc 26 1f a3 3c c1 65 fb bc b1 12 cf 3d
       -0.025070682 0.019912314 -0.030688168 0.10110987
000170 f5 fb 95 3d 5c 3f 54 bd ad 88 e5 bd 0d 36 87 3c
       0.073234476 -0.051818237 -0.112077095 0.016505266
000180 94 e4 bf 3e a7 39 82 3d 16 d9 04 3e 88 82 28 3e
       0.3747908 0.063586526 0.12973437 0.16456044
000190 be 1f 72 be 51 9c 98 be 0d 28 af 3d 63 c3 74 3d
       -0.23644921 -0.2980676 0.08552561 0.059756648
0001a0 a3 c3 86 3e 74 62 84 bc fb 3c 58 3e db 27 c4 3e
       0.26321134 -0.016160227 0.21117012 0.38311657
0001b0 f4 f5 9b 3e af ea 2b be a9 9a 64 3e fe c3 86 3e
       0.30461085 -0.16788743 0.22324623 0.26321405
0001c0 92 42 f3 3d ee 0b a8 3d fc 3d 8d be 5c 41 10 3c
       0.11877932 0.082054004 -0.27586353 0.008804645
0001d0 8d 1e 79 be d6 4b 2a be cd 62 43 3e eb 0b 91 bd
       -0.2432806 -0.16630492 0.19080658 -0.07082351
0001e0 67 c8 3a be 14 7b eb be b0 fc ba be 70 aa d3 3c
       -0.1824051 -0.4599234 -0.3652091 0.025838107
0001f0 b2 47 3b 3e 49 67 51 3e 06 c2 a0 3c 09 40 93 3c
       0.18289068 0.20449556 0.019623768 0.01797487
000200 b0 27 71 3d 11 6f bd 3d 8d 57 da 3d f7 8e ad 3e
       0.05887574 0.092497 0.1066123 0.33898136
000210 5a eb 8e 3e 24 83 83 3d 66 62 5e be 7f 27 8d be
       0.27913934 0.064214975 -0.21717224 -0.27569196
000220 01 c4 1f be 05 ef a0 3d ac 4d 1e be a1 f5 39 bd
       -0.15602113 0.07858089 -0.15459317 -0.045400266
000230 c0 85 fe bb fc e9 53 be ed d4 21 3e ce f8 13 3e
       -0.007767409 -0.20694727 0.15803881 0.1445038
000240 39 7b 89 3e 40 1e 49 3e 6d 0e fb bd e0 c6 19 3e
       0.26851824 0.19640446 -0.12258611 0.15017271
000250 27 1b a5 3c 40 da 8f bc 03 b0 9b be ca c6 bc be
       0.020154549 -0.017560124 -0.30407724 -0.36870414
000260 96 99 80 be 97 60 a9 bc 05 00 3e 3e be b9 ed be
       -0.25117177 -0.02067594 0.18554695 -0.46430773
000270 86 7c 6c be f0 85 5a 3d aa ff 0a 3e fc 74 ea 3e
       -0.23094377 0.05335039 0.1357409 0.45792377
000280 20 b4 da be dc dd a8 bb 6e ac 78 bd 4c 48 93 3e
       -0.4271555 -0.005153401 -0.060711317 0.28766096
000290 01 da 60 3e 75 b5 b9 be 75 6d fe bd 7e 43 40 3e
       0.21958162 -0.36271253 -0.12423221 0.18775746
0002a0 00 b9 7f 3e 31 30 0b 3e 22 96 46 bd cd 13 02 3d
       0.24972916 0.13592602 -0.04848302 0.031757165
0002b0 62 b7 3f 3e 3c ec 00 3e 36 4c 20 3d 75 00 a9 3d
       0.18722299 0.12590116 0.03913518 0.0825204
0002c0 fc b8 8d 3d f0 56 fa 3d 21 1b 4a be f8 6a ae bd
       0.069200486 0.12223613 -0.19736911 -0.085164964
0002d0 f9 2b fe bd 44 d7 d4 3c c3 70 c4 be e7 19 07 bf
       -0.12410731 0.025981553 -0.3836728 -0.527739
0002e0 d8 4c ce be e5 64 7c bd 0a ca 08 bd 7d 0b 45 be
       -0.40293002 -0.061619658 -0.033395804 -0.19242664
0002f0 25 59 65 be 07 15 66 bd c7 db 77 3e e0 b2 1b be
       -0.22397287 -0.056172397 0.24204932 -0.15204954
000300 94 f5 9e 3e 73 bb ff 3e f0 18 08 3f bb c9 14 bd
       0.31046736 0.499477 0.5316305 -0.036325198
000310 ca 89 10 3e ed 6f ed 3d ad 61 db 3e 46 27 3a bd
       0.14115062 0.11593614 0.42847958 -0.04544761
000320 c5 0a 80 3e ff 83 c9 3d db 7e 22 be cf 47 40 be
       0.25008217 0.098396294 -0.15868704 -0.18777393
000330 cf 81 8b be d8 1e c8 3e 1a 3f 72 3e 63 6b bf bd
       -0.27247474 0.39086032 0.23656884 -0.09346654
000340 83 25 f3 be 58 22 91 be 88 4b 95 3e b1 ca bf 3e
       -0.47489557 -0.28346515 0.29159188 0.3745933
000350 7a 6f 97 bd 1f 0e c9 be 28 c7 bc be f7 41 a3 3e
       -0.07394309 -0.39268586 -0.36870694 0.31886265
000360 2b de fa 3d 8d a0 79 3e 95 69 81 be bb 3d 6c be
       0.122494064 0.24377652 -0.25275865 -0.23070423
000370 69 b5 08 3e 8e e3 01 3e 90 3d 47 bc 6d cb 71 3b
       0.13350452 0.12684461 -0.012160674 0.0036894933
000380 fe ce 87 3c 64 43 f6 3d ad a7 15 bd 42 0f 37 bd
       0.016578194 0.120245725 -0.03653686 -0.044692285
000390 e7 ee a8 3e 6c 8d 14 3e bb 68 9e be ec 35 f1 39
       0.32994768 0.14507073 -0.30939278 0.00046007277
0003a0 52 07 0e be a9 7a 3f 3e 16 28 9e 3e 1f f0 d7 be
       -0.1386998 0.18699135 0.30889958 -0.42175385
0003b0 8d 73 03 bf 0d 42 c1 be 15 52 25 be 23 11 a0 3d
       -0.5134819 -0.37745705 -0.16144593 0.078157686
0003c0 cb 53 69 bd 6b 54 95 be 47 78 12 bf bf a4 f6 be
       -0.056964677 -0.29165968 -0.5721478 -0.48172566
0003d0 dd f8 d9 be 41 ef d1 3e 13 8d 8b 3e b5 42 95 3c
       -0.4257268 0.4100285 0.2725607 0.018220285
0003e0 d8 58 ce bd ad 4e 56 be
       -0.10075539 -0.2092845

conv1.bias f4 [10]
000000 8f db 3d be 45 55 2f be 0e 07 0a 3d 26 e6 8f 3d
       -0.18540786 -0.17122371 0.033698134 0.07026319
000010 7b 01 c6 b9 ae 06 9b bd 4d 9a 21 bd c0 0e f1 bc
       -0.00037766606 -0.075696334 -0.039453793 -0.029425979
000020 3d 93 84 be af 4d 02 bc
       -0.25893584 -0.0079530915

conv2.weight f4 [20, 10, 5, 5]
000000 bb ae a1 3c 6d f7 f6 bd 0e e6 22 bc c9 37 98 bd
       0.019736638 -0.120589115 -0.009942545 -0.07432515
000010 28 00 52 bd 63 95 a5 bd 7f 1d bb bd 1c b8 85 bd
       -0.05126968 -0.08085134 -0.09136485 -0.06529257
000020 1e 55 98 bd e2 3c ef 3c 62 20 15 bd 46 f1 eb bd
       -0.0743811 0.029203836 -0.036407836 -0.11520629
000030 a7 a5 e5 bd 41 76 be 3c 12 80 37 3c 57 a8 b9 39
       -0.11213236 0.023249747 0.011199968 0.00035411373
000040 8a 6d ab bd 03 13 f5 bc 2f f8 7c 3a cd 07 73 bd
       -0.08370502 -0.029916292 0.00096500193 -0.05933361
000050 50 97 fe bd 3e 93 b8 bd f0 67 db bd 6b 6c 5a 3c
       -0.12431204 -0.09012459 -0.10713184 0.013331513
000060 2f 56 a2 bd e9 42 84 3c 4a e6 50 bc ea fe 81 bd
       -0.079265945 0.016145186 -0.012750218 -0.06347449
000070 fe d8 a2 bd f5 f9 a7 3b 39 48 35 3d e6 39 0b be
       -0.07951544 0.0051262327 0.04425833 -0.13596305
000080 a4 6b 27 be 44 a0 0a be 21 0e 41 be de a3 25 bd
       -0.16349655 -0.13537699 -0.18853046 -0.04043948
000090 b6 c2 e1 bd 16 ec 24 be 6e 5a df bd ac 5b 0e be
       -0.11023466 -0.16105685 -0.1090592 -0.13902158
0000a0 57 9e de bd 06 af 19 be 0f ff f8 bd ba 9f d3 bd
       -0.10870045 -0.15008172 -0.121580236 -0.103332
0000b0 b6 bd 3e be b0 10 4c be b7 d6 04 be 25 8d b2 bd
       -0.18627056 -0.19928241 -0.12972532 -0.087183274
0000c0 c6 aa b1 bb 1e 41 11 bc 0d b8 d2 3d 81 d7 ae bb
       -0.005421969 -0.008865623 0.10289011 -0.0053357487
0000d0 c0 94 40 bc 58 36 64 3d fa 90 24 3e 11 bb da 3d
       -0.011754215 0.05571589 0.16070929 0.10680211
0000e0 ed 5d 26 bd e9 cf d2 bc 58 f7 0d 3d 16 8e 86 3d
       -0.04061692 -0.025733905 0.034659714 0.065700695
0000f0 68 93 07 3d 57 a6 cb bd 37 17 23 3d 6f c6 1c 3e
       0.033099562 -0.09943836 0.03981706 0.15310071
000100 e9 04 24 3d cf ab 77 bd 82 96 0c 3d 97 ca 65 3c
       0.040043745 -0.060466584 0.034323223 0.014025352
000110 89 a0 89 3d 7a 38 ff bd 91 cc b4 bd be 20 e8 bd
       0.06720073 -0.12461944 -0.088280804 -0.1133437
000120 6a 66 9d bd 6a 32 95 bd c6 c9 28 bd 8b 7b 04 bd
       -0.076855496 -0.07285006 -0.04120805 -0.032344382
000130 04 0a a9 bd 04 bb 58 bd d7 e0 fb bd 35 c4 2d bd
       -0.082538635 -0.052912727 -0.12298744 -0.042423446
000140 d0 0b 08 bd 01 8f 14 be 17 2b a0 bc cc fa 44 bd
       -0.03321439 -0.14507677 -0.019551797 -0.04809074
000150 6d ad a8 bd 1e 61 e5 bc 0b f3 51 bd 43 b7 27 bd
       -0.08236203 -0.02800041 -0.051257174 -0.040946256
000160 15 73 b7 bd e9 81 3b be c0 8b 31 bd c1 72 f7 bc
       -0.08957497 -0.18311276 -0.043346167 -0.030206086
000170 79 86 0f bd 9b f1 a0 bd 2a 92 87 bd 0f 03 9c bc
       -0.035040352 -0.078585826 -0.066196755 -0.019044427
000180 42 10 b8 bd 18 f3 0f be bf 5e 82 bd 8d d4 42 3b
       -0.08987476 -0.14057577 -0.06365728 0.002972874
000190 c5 b7 04 3d 99 7b f0 bd a1 fd 09 be 39 33 d7 bd
       0.03240182 -0.117423244 -0.13475658 -0.10507817
0001a0 04 e1 9e bd 2b 8b 0c bc 14 3c 35 be 1b 94 ec bd
       -0.07757762 -0.008578102 -0.17698699 -0.115516864
0001b0 06 45 b9 bd 43 96 c0 3a f5 0e b4 3d c8 cd e5 bd
       -0.09046368 0.0014693219 0.08791915 -0.1122089
0001c0 f4 28 b6 bd 4f ea 79 3d d9 fc 52 3d 37 2a a9 3c
       -0.0889453 0.06101447 0.051510666 0.020650012
0001d0 5f 3d d0 bd c8 cf 5f bd 50 fd 07 3e 9a 8c 9b bd
       -0.101679556 -0.054641515 0.13280225 -0.07595177
0001e0 be a0 3d be ae a7 6c bd e9 b8 c9 bd 1d e5 99 39
       -0.1851835 -0.0577771 -0.09849722 0.00029353137
0001f0 98 62 56 bd d2 cb 78 3c 46 35 48 bd 9f e0 09 3d
       -0.05234012 0.015185313 -0.04887893 0.03366148
000200 91 82 75 3d bc fe 0a 3c e7 d2 38 3c a9 d5 c2 bd
       0.05993897 0.008483585 0.011280752 -0.09513409
000210 86 f8 cd bc 6e e9 8c bd 5f d4 3f 3d 69 65 bd bd
       -0.02514292 -0.06880461 0.046833392 -0.09247858
000220 ce a3 21 be ce 86 6f 3c af 79 6b bd 94 c4 ac bd
       -0.15785143 0.014619542 -0.057489093 -0.08435932
000230 4f 0a ae bd 8c ad 54 be 6d ba 09 be aa 67 80 bd
       -0.0849806 -0.20769328 -0.13450022 -0.06269772
000240 ed 99 4a bc 87 f2 fb bc f3 7f d0 bd cc 87 d8 bb
       -0.0123658 -0.030755294 -0.101806544 -0.006607985
000250 69 28 40 3d 34 81 aa bd 8d 1f 9a 3d 47 95 27 3e
       0.046913538 -0.08325425 0.07525549 0.16365539
000260 81 3c 9d 3d 52 53 6b bd fc 04 82 bd 78 be 52 3e
       0.07677556 -0.057452507 -0.06348607 0.2058047
000270 81 5d 69 3d 9e c7 47 3e 72 77 93 3d 10 d2 2e 3e
       0.056973938 0.19509742 0.07200517 0.1707232
000280 fa f5 6f 3e 1a 50 35 3e d1 ba c5 3d 9a e1 b9 3d
       0.23433676 0.17706338 0.09654773 0.09076233
000290 d6 af 12 3e f9 c2 14 3e 4a cf 11 3d 32 74 c1 3d
       0.14324889 0.14527501 0.035598077 0.094459906
0002a0 34 f5 1f 3e fe 94 aa 3d 26 30 55 3b f7 8a bb 3c
       0.15620881 0.08329199 0.003252992 0.022893412
0002b0 65 ad 61 3e 95 71 64 3e d8 34 c9 bd 92 8f b2 bd
       0.22038801 0.22308953 -0.09824532 -0.0871879
0002c0 42 ff e5 bd 94 3d 41 bc 73 4f 31 be 76 0e ec bd
       -0.11230327 -0.0117944665 -0.17315464 -0.11526196
0002d0 41 bb 97 bd 70 44 68 bd 6d a5 8a bd fe 9f b0 3c
       -0.07408763 -0.056705892 -0.06769834 0.021560665
0002e0 6d 97 8d bc bc 61 c5 bd b6 08 1f bd 56 25 83 bd
       -0.01728412 -0.09637782 -0.038826667 -0.06403606
0002f0 9a 9d 9f 3d f7 f7 51 bc c4 c3 0b bb cf 21 99 bd
       0.07793732 -0.012815467 -0.0021326402 -0.074771516
000300 42 ed 0d be a2 86 02 be d1 46 28 3d 03 9d 90 bd
       -0.13860038 -0.12746671 0.04108316 -0.070611976
000310 e1 50 29 bd c1 68 37 be 4a ba 69 bd a5 b5 21 3e
       -0.041336898 -0.17911054 -0.057062425 0.15791948
000320 0a a3 58 3e fd 5e 0e 3e 5e 89 69 3d 8b 02 ab bd
       0.21155944 0.13903423 0.05701577 -0.083500944
000330 b7 93 64 bd ea 29 cb 3d 10 29 74 3d 28 ef 99 3d
       -0.055804934 0.09920104 0.059609473 0.075163186
000340 56 41 14 bc 76 fd fe 3d 35 a5 6c 3e 7a 1b ef 3d
       -0.00904878 0.124506876 0.23109896 0.116751626
000350 dd f1 bb bc 9d 4d cf bb 7d 6c c4 3d ea cf 84 3d
       -0.022942478 -0.006326391 0.09591005 0.06484969
000360 d6 00 17 3d 0c 4d 57 3b 84 5a 65 3d b0 dc 12 3e
       0.03686603 0.003285232 0.055994526 0.14341998
000370 4d e3 18 3e 4f 42 25 3d 6a 0a 51 3e 5a b4 48 3e
       0.14930458 0.04034644 0.20414129 0.19600049
000380 22 2a c9 3d 0c fa 2e 3d fa c7 dd 3d f6 f6 b3 3c
       0.09822489 0.042718932 0.10829158 0.021968346
000390 5f 66 8e 3d df 5c 11 bc 53 d0 93 3d 8b aa a9 3d
       0.069531195 -0.00887224 0.07217469 0.082844816
0003a0 70 fc b7 3c 19 55 34 bd 57 fb a4 bd cf 3f 2f 3d
       0.022459239 -0.044026468 -0.08055752 0.042785462
0003b0 96 42 f3 bc 33 82 fe bc 02 b2 b3 bd a4 d0 b5 bd
       -0.029694837 -0.031067943 -0.08774187 -0.08877686
0003c0 10 23 92 bd f4 27 2e bd 00 4d 4d bd 14 3f 28 be
       -0.07135594 -0.04251857 -0.05012226 -0.16430312
0003d0 29 37 4d 3c 55 c5 45 3c 8a 74 57 bd d5 ba 5f bb
       0.012525358 0.012070973 -0.052601375 -0.003413846
0003e0 ad 62 2b 3c 7f 4f 97 3d c9 78 1c bd ac da 96 bc
       0.010460538 0.073882096 -0.038201127 -0.018414818
0003f0 3b 1c a6 3a dd 96 ae bd 4a 3c e6 bd 90 50 23 be
       0.0012673208 -0.08524869 -0.11241968 -0.15948701

conv2.bias f4 [20]
000000 15 69 b3 3d 36 91 13 bd 6e 67 14 bc 10 fd c3 3b
       0.08760277 -0.036027156 -0.009057863 0.005981095
000010 b3 cd c7 bd 5e e2 fc bc 57 90 c5 3c 4e e6 3c bd
       -0.09756031 -0.030869659 0.024116678 -0.046118073
000020 ba 65 4e bd e5 c8 25 3c f2 aa c5 bd 37 9c 6b bd
       -0.050389983 0.010118698 -0.09651746 -0.057522025
000030 d2 f5 e9 bc 4b 33 35 bc 8f 8e c0 bd 66 07 2c bd
       -0.0285596 -0.0110595925 -0.09402191 -0.041999243
000040 25 cd 30 bd 8b 5a d6 bc cd 5e 93 bb 89 11 bb ba
       -0.04316439 -0.026166221 -0.004497385 -0.0014272194

fc1.weight f4 [50, 320]
000000 02 62 d4 3c 60 ca 03 bd 9b 02 47 3d 06 09 74 3d
       0.02592564 -0.03217542 0.04858647 0.059578918
000010 60 38 70 3b 66 15 47 bd 90 bc 58 bd a8 d1 3c 3c
       0.0036654696 -0.04860439 -0.052914202 0.011524595
000020 3b 68 93 bd a4 c2 74 bd 61 3b 90 bd f4 10 d5 bd
       -0.07197615 -0.059755936 -0.07042576 -0.10403624
000030 6a ec 93 3d d5 e4 89 3d 51 79 a8 3d e4 27 f4 3d
       0.07222827 0.06733099 0.08226264 0.11921671
000040 8a c3 ff bc cd a9 5d bd 32 e3 bc bc 75 c1 de bc
       -0.03122117 -0.054117013 -0.023057554 -0.027191857
000050 2b ee 11 bc 89 04 a9 3c 1c 5b 50 3d 2b d0 4e 3d
       -0.008906881 0.020632045 0.05086814 0.050491493
000060 ca f7 e4 bc 72 fa 1c bc 11 23 eb 3c 24 d6 a2 3d
       -0.027950186 -0.009581195 0.028703244 0.07951
000070 70 9d a0 bd 23 7c 5c 3b 88 13 02 bc 75 a2 35 3d
       -0.07842529 0.0033643327 -0.007939227 0.044344384
000080 24 4e 2d bd 4f d5 db bc 29 6d 2d bd b6 ee 50 3d
       -0.04231085 -0.026835112 -0.04234043 0.051008902
000090 9b 3f 0f 3b bd f8 0d bd 4f b4 ae bd b2 25 b2 b9
       0.002185798 -0.034661043 -0.08530485 -0.0003397889
0000a0 08 c3 09 bd 7c a7 4e bd a9 e5 01 3d 29 44 4a bd
       -0.033633262 -0.050452694 0.03171316 -0.04938141
0000b0 ed 6b 22 3c 03 f4 45 3d 01 ec 55 3d dc 1c 65 3d
       0.009913427 0.04832841 0.052227024 0.055935726
0000c0 43 75 51 bd 19 75 e9 bb 7a b9 9c bc 07 b2 42 3c
       -0.05113722 -0.007124555 -0.01913141 0.011883265
0000d0 29 97 a6 bc 95 0e df 3b 75 23 62 3a 44 42 e2 bc
       -0.02033575 0.0068071582 0.00086264993 -0.027619489
0000e0 65 f4 05 bc d5 35 ee bc 84 94 d4 bc 13 14 cd 3b
       -0.008175944 -0.029078403 -0.025949724 0.0062584965
0000f0 f6 73 17 3e f0 0d 17 3e e9 40 44 3d 99 e6 b3 3b
       0.1479033 0.1475141 0.047913466 0.005490136
000100 02 2b ea bc 66 7b f4 bb fc f3 25 3c 30 9b 52 bd
       -0.02858496 -0.0074609993 0.010128971 -0.05141753
000110 e9 64 f8 bc 54 d9 5e bc 7a 3f ad 3c 35 56 74 bd
       -0.030321555 -0.01360162 0.021148432 -0.059652526
000120 38 4e 45 3d 90 b5 a1 3c a1 4d 62 bd 86 18 b0 bc
       0.0481703 0.019739896 -0.055249814 -0.021496069
000130 33 c5 5a 3d 09 b5 82 3d b6 c7 d7 bb 4e 3a ab bd
       0.05341072 0.06382186 -0.0065850867 -0.0836073
000140 84 b4 20 ba f5 f1 10 3d cc b7 9d 3b 63 cb 93 3d
       -0.00061304145 0.035387 0.00481317 0.07216527
000150 59 18 a1 3c 65 a5 23 bd 9b f6 85 3b c6 95 76 3d
       0.01966493 -0.039952654 0.0040882356 0.06020143
000160 2b 69 c8 3d ea 63 4a 3d 6e 12 b2 3d 07 f2 03 3d
       0.09785684 0.04941169 0.086949214 0.032213237
000170 e1 ab a9 3b f2 00 4b bd a9 c0 e0 bc 78 a2 ca bc
       0.0051779603 -0.04956145 -0.027435618 -0.024735674
000180 83 66 69 3c 24 14 32 bd 70 8f 11 bd 6c bf 9e 3d
       0.014245632 -0.04347624 -0.035537183 0.077513546
000190 e6 35 a6 bd 9f 14 94 bd 41 a5 71 bc 9f 0e 2b 3c
       -0.08115749 -0.07230496 -0.014748872 0.010440498
0001a0 07 cf fa 3c dc 17 7b bd 9c a9 f0 bc d4 11 e2 3c
       0.030616296 -0.06130205 -0.029377751 0.027596392
0001b0 d0 94 bd 3d 51 d4 39 3d d4 d4 8a 3d ab 12 07 3d
       0.09256899 0.045368496 0.06778875 0.032976788
0001c0 1c 87 c1 3d 89 f0 ac 3c a6 5b c0 bc 4a 4a 01 3e
       0.09449598 0.02111079 -0.023481201 0.12625995
0001d0 0f 1d 12 3e 27 34 15 3d 6a 6e d1 bc c8 3d b3 bc
       0.14268897 0.03642669 -0.025565345 -0.021880046
0001e0 8b 6f cb 3c 0c 33 29 bd a4 cd 45 3c 51 8c 63 bd
       0.024833461 -0.041308448 0.012072954 -0.055553738
0001f0 8f f3 55 bd d2 ba 4b 3c 02 11 4e bd f7 f9 ce bd
       -0.05223423 0.012434678 -0.05030919 -0.10106271
000200 fa e8 e3 3b ed d1 b4 bc 61 4b 5f 3c 79 d8 f9 3b
       0.006955263 -0.022072757 0.013628812 0.0076246825
000210 10 1a b7 3d a4 4f 74 bd 10 3e 89 bd 43 62 89 bc
       0.08940518 -0.059646264 -0.067012906 -0.016770488
000220 4e a5 e4 ba da a3 fb 3c 19 62 20 bc e5 e0 b5 bc
       -0.0017444284 0.030717779 -0.009789013 -0.022201965
000230 1e 58 30 bd b5 05 19 bd e9 0f 43 bc a5 5d b4 3d
       -0.043052785 -0.03735896 -0.011905649 0.08806924
000240 20 6f 6d 3d c8 1b 61 bc 4c 95 46 3d b4 12 e8 bc
       0.057967305 -0.013739534 0.048482224 -0.02832923
000250 5e e3 f4 3b de f1 3b bd 43 cc cf 3c ed 6e 07 bd
       0.0074733933 -0.04588496 0.025365954 -0.03306477
000260 9c 23 fb bb 61 8b 2f bd b0 21 03 bd 7e 4d f7 3c
       -0.007664157 -0.04285753 -0.03201455 0.030188318
000270 fa fc f9 3b d1 e0 14 3d e8 70 61 bd de 03 ce bb
       0.007629034 0.036347214 -0.055039316 -0.006287082
000280 bd 68 a7 bc 3b 3d 04 bd 8d 1c f7 ba ad 8a 97 bd
       -0.020435685 -0.032284956 -0.0018853113 -0.07399497
000290 f6 80 00 bd 98 c4 94 bc b3 d6 a8 bc 77 e4 a0 bc
       -0.031372987 -0.01816015 -0.020610189 -0.01964019
0002a0 02 55 f6 3d f6 9c 32 3d 62 09 f3 ba f1 51 d2 bc
       0.12027933 0.04360672 -0.0018542225 -0.025673838
0002b0 8f 41 cf 3d 5f c5 82 bd dc 38 1c bd 14 51 b1 bd
       0.10119926 -0.06385302 -0.038140163 -0.086580426
0002c0 fb ed 75 3d 3a 19 09 3d 79 1b 63 3d 76 7c 1d bc
       0.06004141 0.033471324 0.05544612 -0.009612193
0002d0 cb 58 93 3d 48 a9 16 3d 6b b7 e4 3d 7e e1 fa 3c
       0.0719467 0.036782533 0.11167797 0.030625101
0002e0 69 b1 88 3c 4b a3 47 3d af 8f 9f 3c 1e 16 c9 bd
       0.016686158 0.048739713 0.019477693 -0.09818672
0002f0 23 71 c1 bc ed 46 0d bd 2b 41 ba bd 59 0e e8 bd
       -0.023613518 -0.03449147 -0.09094461 -0.113308616
000300 d2 de 88 3d 31 57 2f bc 13 7d 80 bc 1d 7d fa bc
       0.066831246 -0.01070194 -0.01568464 -0.030577237
000310 65 1e a0 3d 0c 61 be 3a de f0 72 3c 7c c6 85 bd
       0.07818297 0.0014524772 0.014827935 -0.065319985
000320 e8 9e 79 bb 2e f1 12 3d 77 1a 39 3d 52 c5 af 3c
       -0.00380891 0.035874538 0.045191254 0.021456394
000330 cc a8 6e bd fd f6 e6 ba 09 9d 03 bd 70 d7 cf 3c
       -0.058266446 -0.0017621216 -0.032132182 0.025371283
000340 cd fd 74 3d 50 4e 33 3d 33 55 01 3d bc 73 f6 3a
       0.059812356 0.043775856 0.031575393 0.0018802802
000350 ff 45 48 bb 1a 03 f7 bc 09 d6 a7 bd ef c8 bd bc
       -0.00305593 -0.030152846 -0.08195121 -0.023167102
000360 2a a2 99 3c de 34 a9 bb 09 d0 2e bc 15 1f b5 3d
       0.018754084 -0.005163773 -0.010669717 0.08843819
000370 b2 7c 09 3e 6d 57 89 3c ea 58 fd 3c 71 fa 03 bd
       0.13426474 0.01676532 0.030926187 -0.03222126
000380 93 32 4e bb 25 0a 75 3c 02 07 73 3d cb ad c0 3d
       -0.003146325 0.014956032 0.059332855 0.094081484
000390 c3 6f 94 bd ed 28 09 3c 5a b9 b2 3c ff 83 13 bc
       -0.07247879 0.008371574 0.021816898 -0.009003638
0003a0 2c 9b 43 bd 2a 55 54 bd c1 ee a7 3c ac ce 2f 3d
       -0.047755405 -0.05183903 0.020499589 0.042921707
0003b0 88 df 12 3e c5 ce 29 bd 84 e0 8c bd f8 30 89 bd
       0.14343083 -0.041456956 -0.068787605 -0.06698793
0003c0 e4 2b 44 3c 98 45 40 3d c7 9a c7 bc 36 0d 36 3e
       0.011973355 0.04694137 -0.024365796 0.17778477
0003d0 4c d9 76 bd 88 4f 86 bb 8d 54 e6 bc a9 84 44 bc
       -0.060265824 -0.0040988363 -0.028116489 -0.011994519
0003e0 94 63 9c bb 28 b4 9c bc 25 c5 38 bc 5d 5f 86 bd
       -0.004772613 -0.019128874 -0.011277472 -0.06561158
0003f0 b6 ec 90 3d 34 1f 85 3d 3e cf 39 bd d3 1a 9c bd
       0.07076399 0.06500092 -0.045363657 -0.07622304

fc1.bias f4 [50]
000000 27 5c 95 3d b7 88 ce 3d 23 a9 35 3c 49 51 28 3d
       0.07292967 0.1008467 0.011087689 0.041093145
000010 cb f6 6f 3d 9f 56 b7 ba f8 f0 97 3d f3 11 2f 3d
       0.05858497 -0.0013987607 0.07419008 0.042741727
000020 46 9a 6e 3d c0 9f 42 3d 4d f2 06 3e c0 b0 84 bc
       0.058252595 0.04751563 0.13178368 -0.016197562
000030 e1 22 0f 3e ff e0 a0 3d 37 20 c2 3d e8 75 33 bd
       0.13978149 0.078554146 0.09478801 -0.043813616
000040 39 ac ec 3c 6f 7b c2 3d e2 1e c9 3d f2 7d 24 3e
       0.028890716 0.09496199 0.098203436 0.1606367
000050 4a ba 19 3e 62 4a 55 3d 9c 98 be 3b 5a 70 b0 3d
       0.1501247 0.05207289 0.0058165323 0.08615179
000060 12 3c 24 3c 91 c3 96 3d 56 ee 93 3d 50 8d 00 3e
       0.0100240875 0.0736152 0.07223193 0.12553906
000070 55 57 75 3d a7 ef f3 bc ad f0 1e 3c 53 ca 0e 3d
       0.05989774 -0.029777361 0.009700936 0.03486092
000080 06 fc 24 bc f7 19 d3 3c 28 71 b6 3d b2 a3 db 3d
       -0.010069853 0.025769217 0.089083016 0.10724582
000090 3c 85 6c bc c3 98 d1 3d 6d 79 02 3e ee 0e 58 bd
       -0.014436062 0.10234215 0.12741633 -0.052748613
0000a0 7a c0 d8 3d eb f1 8d 3c fd db 97 bd 54 66 c8 3d
       0.10583587 0.01732727 -0.07415006 0.097851425
0000b0 8c 45 c1 3d 31 1d 49 3d ac fc d7 3d 2b 3f 45 3d
       0.09437093 0.049100105 0.1054624 0.048155945
0000c0 b4 9b 10 3b c3 a1 d0 3c
       0.0022065463 0.025467759

fc2.weight f4 [10, 50]
000000 5a ec b7 be 73 2c 4f be 93 24 5a be 72 90 87 be
       -0.3592251 -0.202318 -0.21303014 -0.2647739
000010 10 0d 72 3e b5 7d f3 3d 57 ba 2a bc d3 ba 95 be
       0.23637795 0.11889211 -0.010420403 -0.29244098
000020 59 68 0a 3e aa 8c 1b be 46 e1 ab 3d 68 53 b2 bd
       0.13516368 -0.15190378 0.08392577 -0.08707315
000030 9a 9d b9 3e 69 07 a8 3e 7d ab 64 3e 80 45 4a be
       0.36253053 0.32818154 0.22331043 -0.19753075
000040 8a 55 05 3e dc de 9b be f6 c9 1c be 17 a5 5a be
       0.13020912 -0.30443466 -0.15311417 -0.2135204
000050 b5 48 08 be db 62 8f be db dc 45 be 1d e6 a9 be
       -0.13308986 -0.28005108 -0.19322531 -0.33183375
000060 fa e8 6f 3e f2 7d 4c bd 4d 1b 0f be a6 e9 4f be
       0.23428717 -0.0499248 -0.13975258 -0.20303974
000070 6f a9 65 3e 04 c4 84 3d 79 41 22 be 94 d5 69 3e
       0.22427915 0.064826995 -0.15845288 0.2283538
000080 59 36 b4 bc 9e 57 3e 3d 16 75 94 3c a2 4a db bd
       -0.021998571 0.046470277 0.018122237 -0.107075945
000090 f2 b3 20 be 8b d8 31 bd fa d1 0a be c9 59 86 bd
       -0.15693644 -0.043419402 -0.13556662 -0.06560094
0000a0 53 c9 39 3e 1b b9 b1 3e 99 75 37 be d5 30 0c be
       0.18143205 0.34711537 -0.17915954 -0.13690503
0000b0 58 ff 2d be 95 58 5c 3e 88 6f 74 3e 02 64 4c 3e
       -0.16991937 0.21518166 0.23870671 0.19960025
0000c0 60 92 78 be 2f fe 48 3e 37 10 53 3d de 4e 0d 3e
       -0.24274588 0.19628213 0.051529136 0.13799617
0000d0 20 e8 38 be f0 3e 8c 3e c7 c1 de bc c8 89 5f be
       -0.18057299 0.27391768 -0.02719201 -0.21829903
0000e0 32 a5 6e be af 37 12 3e da d8 84 bd 42 82 50 3e
       -0.23305205 0.14279054 -0.06486674 0.2036219
0000f0 3f 4f 94 3e e8 a0 90 be 95 1b 95 3e 3c 3c 29 be
       0.2896671 -0.28247762 0.29122606 -0.16526884
000100 d2 5a 9a be 74 2d 80 bc ff e6 33 be d3 83 42 3e
       -0.30147415 -0.015646674 -0.17568587 0.189956
000110 db ee 42 3e 96 01 8c 3e bf ef 60 3e e8 bc 3f be
       0.19036429 0.2734496 0.21966456 -0.18724406
000120 df d1 b7 be ce 39 73 3e 8b 41 d8 bd ef b0 b9 3e
       -0.35902306 0.2375252 -0.10559376 0.36267802
000130 6d 98 8e 3e 56 e2 85 3e 73 c6 59 be 56 92 48 be
       0.27850667 0.26149243 -0.21267109 -0.19587073
000140 ad 15 cc 3d 8d fe 45 be 88 69 30 be c8 53 7e be
       0.09965072 -0.19335385 -0.17227757 -0.24836648
000150 de b1 2f be 0e f0 44 3e a4 c8 03 bd 5b 46 1a 3e
       -0.17157695 0.19232199 -0.032173768 0.15065901
000160 5c da 7d 3e b2 74 7f be be a6 5c 3e 93 e1 08 be
       0.24790329 -0.2494686 0.21547982 -0.133673
000170 e6 25 9a be 65 b6 99 3e 5c 3e 3d be 29 8e 6c 3d
       -0.3010704 0.30021968 -0.1848082 0.057752762
000180 a7 24 7e bd 6f 9f 3f be 9f aa 21 be 02 e4 6b be
       -0.062046673 -0.18713163 -0.15787743 -0.23036197
000190 2e 8c 4f be a0 18 1a 3e 5f 58 35 3e ad 11 3c 3e
       -0.20268318 0.15048456 0.17709492 0.18366118
0001a0 10 ec 29 3e 10 d7 af 3d 7e 3b 70 3e c9 b4 4d 3e
       0.16593957 0.08585942 0.23460194 0.20088495
0001b0 c4 51 17 3e be dd 6a 3e a5 09 9d 3d d7 22 7d 3c
       0.14777285 0.2293615 0.07667855 0.015450201
0001c0 f3 1e 7a be ee fc 31 be 27 7c e7 bd f4 1a 58 be
       -0.24425869 -0.17381641 -0.11302977 -0.21104032
0001d0 35 55 3f be 4a b9 4e 3e 3e b0 44 be 6f 3a 80 be
       -0.18684848 0.2018787 -0.19207856 -0.2504458
0001e0 f0 ad 74 bd dc fe 2f be 7f af 41 be 6e 40 85 3e
       -0.059736192 -0.17187065 -0.18914603 0.26025718
0001f0 99 65 7d bd d4 fb a0 3e 7d 25 ff bd e5 97 4a be
       -0.06186447 0.3144213 -0.12458322 -0.19784506
000200 29 6b b1 bd ce a5 3b bd 25 7d 3f 3e 04 b2 6d 3d
       -0.08663017 -0.04581242 0.18700083 0.058031097
000210 41 7a 95 bd eb 0a 56 be 5b e1 3e 3e e4 64 66 be
       -0.07298709 -0.20902602 0.18640654 -0.22499424
000220 dd 20 70 3e 73 90 58 3e 48 ae 34 be da 1c c5 bd
       0.23450036 0.21148853 -0.17644608 -0.096246436
000230 65 e0 1b 3e 0d 5f a0 3e 1a 95 43 3e 6f ef 12 be
       0.15222318 0.31322518 0.19099846 -0.14349149
000240 87 ee 53 bd ad c1 39 3e ce 69 35 3e 9d 4e 09 3e
       -0.05174115 0.18140288 0.17716143 0.13408895
000250 cc 42 2e 3e b8 52 2b bd 5c 47 36 3e a3 35 fb bd
       0.17017668 -0.041826934 0.17800659 -0.1226609
000260 7a b2 38 3e 0f 8a 87 3e 8a 1b bf bd 48 ad 52 3d
       0.18036833 0.26472518 -0.093314245 0.051434785
000270 4c 74 3f be 9a f0 5a 3e 25 cd 0c be 9e d7 18 3b
       -0.18696707 0.21380845 -0.13750131 0.0023321877
000280 e2 c8 b0 bd 8f 9d 36 be fa 14 4c be 65 86 d7 bd
       -0.08632065 -0.17833541 -0.19929877 -0.105236806
000290 22 37 f9 bd 1b a1 67 3e f3 7c 7c bd 07 75 4e 3e
       -0.12168719 0.2262005 -0.0616426 0.2016183
0002a0 b3 36 30 3e 78 34 2f be da 68 84 be 22 f9 3c be
       0.17208366 -0.17109859 -0.25861245 -0.18454412
0002b0 87 c0 20 3e b1 5d 0f 3d 83 b7 62 3d 05 03 4e be
       0.15698443 0.03500146 0.05535079 -0.2011834
0002c0 34 e1 93 be 11 70 81 3e 1a b3 1d be e2 14 69 3e
       -0.28882754 0.25280812 -0.15400353 0.22761872
0002d0 3c a2 5e 3e d8 cb 4b 3e 5e ed 7a 3e ce db 02 be
       0.21741575 0.19901979 0.24504611 -0.12779161
0002e0 5c b1 37 be c6 13 89 be fa e1 58 3e 2e a0 50 3e
       -0.17938751 -0.26772898 0.21179953 0.20373604
0002f0 8e 81 19 be 71 1b 8d 3e f8 e9 d3 bd 6b 87 cf bd
       -0.14990827 0.2756 -0.103473604 -0.10133251
000300 cf ae 29 be db 76 7e bd 64 98 d4 39 ec 2d 36 3e
       -0.1657059 -0.06212507 0.0004054933 0.17790955
000310 fa e0 0d be 62 6f f6 bd ca d7 57 3e 5b c3 3c 3e
       -0.13855353 -0.12032963 0.2107841 0.18433897
000320 8b 07 47 3e 4a f9 f1 3d ed 42 5d 3e 50 66 39 be
       0.19436471 0.11815126 0.21607561 -0.18105435
000330 c2 f1 0b be 6d 8f 97 be b2 36 8d 3e 1d 2c 71 3e
       -0.13666442 -0.29601613 0.27580792 0.23551984
000340 9c 05 26 3e 4e 0d bf bd f8 72 aa 3e 4a ce ba 3e
       0.16213077 -0.093287095 0.3329084 0.3648551
000350 29 ff e5 bd 76 1b 9e bd f1 3a 63 be e8 04 6f be
       -0.112303086 -0.077200815 -0.22190453 -0.23341715
000360 3a e5 53 be 45 fa 13 be f3 24 6f 3e 7f 0f 5f 3e
       -0.20692912 -0.14450939 0.23353939 0.21783255
000370 1c 70 86 3e cd 90 9b 3e 5d d8 99 3d a8 72 5a 3d
       0.26257408 0.30383912 0.07511971 0.053332
000380 70 f6 eb bd 58 f8 40 bb e7 2a ca 3b 80 58 f7 ba
       -0.115216136 -0.00294449 0.006169665 -0.001887098
000390 55 50 3c be 79 c7 77 be 74 26 2a be ca a3 9f be
       -0.18390019 -0.24197187 -0.16616231 -0.3117965
0003a0 2b 9e cb 3a 83 88 a9 3e 84 88 a1 3e 98 35 81 3e
       0.0015534809 0.33111963 0.31549466 0.252362
0003b0 13 49 25 be 39 b0 47 be 09 62 f1 bd 10 59 0a 3d
       -0.16141157 -0.19500817 -0.11786277 0.033776343
0003c0 a7 28 3d be 52 ac 02 3e 35 07 d9 bd 12 2b 29 3d
       -0.18472539 0.12761047 -0.10597078 0.04130084
0003d0 f6 15 97 3e c7 0d 64 bd 2e f2 2a 3e bf d0 36 3e
       0.29508942 -0.0556772 0.16693947 0.17853068
0003e0 8f c6 6a be bf 35 c2 be e9 44 45 3e 54 58 c0 3d
       -0.22927307 -0.3793163 0.19264568 0.09391847
0003f0 7f 5a 32 be 16 4b e3 bd 7f 41 18 3e 4c a3 b7 be
       -0.17417334 -0.11098306 0.14868735 -0.35866773

fc2.bias f4 [10]
000000 5d 5d d1 3e b4 81 cd 3e 11 b6 84 be 72 ac b4 be
       0.40891543 0.40138018 -0.25920156 -0.35287815
000010 33 74 00 bd 33 cc 55 be 5b 3f 04 be 22 7e 56 3d
       -0.031360816 -0.20878677 -0.12914793 0.052366383
000020 e1 d5 89 3e c1 49 a0 bd
       0.2692099 -0.078265674
